…
training set size= 1726    development set size= 740
categories= [0. 1.]
number of category= 2
------------
Sanity Check:
height= 224  width= 224  channel= 3
training set size= 1726    development set size= 740
categories= [0. 1. 2. 3.]
number of category= 4
------------
(1726, 1)
(1726, 4)
__________________________________________________________________________________________________
Layer (type)                    Output Shape         Param #     Connected to                     
==================================================================================================
main_input (InputLayer)         (None, 224, 224, 3)  0                                            
__________________________________________________________________________________________________
densenet121 (Model)             (None, 7, 7, 1024)   7037504     main_input[0][0]                 
__________________________________________________________________________________________________
flatten_1 (Flatten)             (None, 50176)        0           densenet121[1][0]                
__________________________________________________________________________________________________
dropout_1 (Dropout)             (None, 50176)        0           flatten_1[0][0]                  
__________________________________________________________________________________________________
batch_normalization_1 (BatchNor (None, 50176)        200704      dropout_1[0][0]                  
__________________________________________________________________________________________________
dense_1 (Dense)                 (None, 64)           3211328     batch_normalization_1[0][0]      
__________________________________________________________________________________________________
dropout_2 (Dropout)             (None, 64)           0           dense_1[0][0]                    
__________________________________________________________________________________________________
batch_normalization_2 (BatchNor (None, 64)           256         dropout_2[0][0]                  
__________________________________________________________________________________________________
dense_2 (Dense)                 (None, 10)           650         batch_normalization_2[0][0]      
__________________________________________________________________________________________________
dense_3 (Dense)                 (None, 20)           1003540     batch_normalization_1[0][0]      
__________________________________________________________________________________________________
stenosis_output (Dense)         (None, 1)            11          dense_2[0][0]                    
__________________________________________________________________________________________________
anatomy_output (Dense)          (None, 4)            84          dense_3[0][0]                    
==================================================================================================
Total params: 11,454,077
Trainable params: 11,269,949
Non-trainable params: 184,128
__________________________________________________________________________________________________
None
Epoch 1/100

 1/53 [..............................] - ETA: 25:52 - loss: 3.3774 - stenosis_output_loss: 0.8379 - anatomy_output_loss: 1.7016 - stenosis_output_acc: 0.6250 - anatomy_output_acc: 0.2500
…
