…
[1.] , [0. 0. 0. 1.]
[1.] , [1. 0. 0. 0.]
[0.] , [1. 0. 0. 0.]
[0.] , [0. 0. 1. 0.]
[1.] , [1. 0. 0. 0.]
[1.] , [1. 0. 0. 0.]
[1.] , [0. 0. 1. 0.]
[1.] , [0. 0. 1. 0.]
[1.] , [0. 1. 0. 0.]
[0.] , [0. 0. 0. 1.]
[1.] , [0. 1. 0. 0.]
[1.] , [0. 1. 0. 0.]
[0.] , [1. 0. 0. 0.]
__________________________________________________________________________________________________
Layer (type)                    Output Shape         Param #     Connected to                     
==================================================================================================
main_input (InputLayer)         (None, 224, 224, 3)  0                                            
__________________________________________________________________________________________________
densenet121 (Model)             (None, 7, 7, 1024)   7037504     main_input[0][0]                 
__________________________________________________________________________________________________
flatten_1 (Flatten)             (None, 50176)        0           densenet121[1][0]                
__________________________________________________________________________________________________
dropout_1 (Dropout)             (None, 50176)        0           flatten_1[0][0]                  
__________________________________________________________________________________________________
batch_normalization_1 (BatchNor (None, 50176)        200704      dropout_1[0][0]                  
__________________________________________________________________________________________________
dense_1 (Dense)                 (None, 64)           3211328     batch_normalization_1[0][0]      
__________________________________________________________________________________________________
dropout_2 (Dropout)             (None, 64)           0           dense_1[0][0]                    
__________________________________________________________________________________________________
batch_normalization_2 (BatchNor (None, 64)           256         dropout_2[0][0]                  
__________________________________________________________________________________________________
dense_2 (Dense)                 (None, 10)           650         batch_normalization_2[0][0]      
__________________________________________________________________________________________________
dense_3 (Dense)                 (None, 20)           1003540     batch_normalization_1[0][0]      
__________________________________________________________________________________________________
stenosis_output (Dense)         (None, 1)            11          dense_2[0][0]                    
__________________________________________________________________________________________________
anatomy_output (Dense)          (None, 4)            84          dense_3[0][0]                    
==================================================================================================
Total params: 11,454,077
Trainable params: 11,269,949
Non-trainable params: 184,128
__________________________________________________________________________________________________
None
Traceback (most recent call last):
  File "train.py", line 97, in <module>
…
