…
training set size= 6588    development set size= 824
categories= [0. 1.]
number of category= 2
------------
Sanity Check:
height= 224  width= 224  channel= 3
training set size= 6588    development set size= 824
categories= [0. 1. 2. 3.]
number of category= 4
------------
(6588, 1)
(6588, 4)
flowed
__________________________________________________________________________________________________
Layer (type)                    Output Shape         Param #     Connected to                     
==================================================================================================
main_input (InputLayer)         (None, 224, 224, 3)  0                                            
__________________________________________________________________________________________________
densenet121 (Model)             (None, 7, 7, 1024)   7037504     main_input[0][0]                 
__________________________________________________________________________________________________
flatten_1 (Flatten)             (None, 50176)        0           densenet121[1][0]                
__________________________________________________________________________________________________
dropout_1 (Dropout)             (None, 50176)        0           flatten_1[0][0]                  
__________________________________________________________________________________________________
batch_normalization_1 (BatchNor (None, 50176)        200704      dropout_1[0][0]                  
__________________________________________________________________________________________________
dense_1 (Dense)                 (None, 32)           1605664     batch_normalization_1[0][0]      
__________________________________________________________________________________________________
dropout_2 (Dropout)             (None, 32)           0           dense_1[0][0]                    
__________________________________________________________________________________________________
batch_normalization_2 (BatchNor (None, 32)           128         dropout_2[0][0]                  
__________________________________________________________________________________________________
dense_2 (Dense)                 (None, 20)           660         batch_normalization_2[0][0]      
__________________________________________________________________________________________________
dropout_3 (Dropout)             (None, 20)           0           dense_2[0][0]                    
__________________________________________________________________________________________________
batch_normalization_3 (BatchNor (None, 20)           80          dropout_3[0][0]                  
__________________________________________________________________________________________________
dense_3 (Dense)                 (None, 10)           210         batch_normalization_3[0][0]      
__________________________________________________________________________________________________
dense_5 (Dense)                 (None, 10)           501770      batch_normalization_1[0][0]      
__________________________________________________________________________________________________
stenosis_output (Dense)         (None, 1)            11          dense_3[0][0]                    
__________________________________________________________________________________________________
anatomy_output (Dense)          (None, 4)            44          dense_5[0][0]                    
==================================================================================================
Total params: 9,346,775
Trainable params: 9,162,671
Non-trainable params: 184,104
__________________________________________________________________________________________________
None
Epoch 1/200

  1/205 [..............................] - ETA: 1:10:53 - loss: 4.9810 - stenosis_output_loss: 0.9909 - anatomy_output_loss: 1.7858 - stenosis_output_acc: 0.4688 - anatomy_output_acc: 0.2500
…
